cnn.onnx (onnx, 821968 bytes, 16 tensors)

conv1.weight f4 [8, 3, 3, 3]
0.004423963 -0.10956247 -0.11408985 -0.17650609 0.005362521 -0.099251166 0.15111761 0.18412259
-0.026883632 -0.05240188 0.025229434 -0.021013124 0.12344689 -0.094716184 0.108132444 0.07804915
-0.05775326 0.10734958 -0.10190038 -0.010894577 0.0018873697 -0.206724 -0.06910801 -0.071663186
0.2375174 0.18350281 0.011976337 0.01902212 -0.14181796 0.13385797 0.1327491 -0.08973575
-0.091471985 0.05126279 0.13532323 -0.013638241 0.055217177 -0.006764351 0.08625958 -0.14865492
0.0059606996 -0.14521143 0.13899386 0.16420695 -0.027278874 0.07493279 -0.15821923 -0.1733211
-0.17412421 -0.02525073 -0.023904406 0.13519393 -0.03839192 0.03881197 -0.06434398 0.065261096
0.16606215 0.16984344 0.031301323 0.08825342 0.057896525 0.1168137 -0.0018840651 -0.12027457
-0.12842129 0.13960104 0.03223886 -0.1439299 -0.047097042 -0.10029517 -0.05164279 -0.11859683
-0.046459414 -0.17275105 -0.17284721 -0.15352261 -0.09484944 -0.1845809 -0.17803046 -0.00045043605
0.09810172 -0.00028032175 -0.13371308 -0.15637572 -0.14227116 -0.19685024 0.12844634 0.048511848
-0.19284816 -0.12848255 -0.102400996 0.05402415 0.0071601276 0.09035373 0.1595531 -0.085208245
-0.07196846 -0.14594191 -0.0558148 -0.03535848 -0.105789945 0.05998487 0.15547852 -0.022034228
-0.072107546 0.15553808 0.16821812 0.1489654 0.10508636 -0.07331533 0.07467318 -0.04402277
0.0057891845 0.16087589 -0.19431826 0.015126736 0.15681615 -0.037207242 -0.08327536 0.14687708
0.15766047 -0.055921886 0.013141681 0.12950656 -0.123883665 0.083943 -0.12205311 -0.20355907
0.069795504 -0.06483776 -0.16621546 0.09746263 0.006382014 0.1792681 -0.025870586 0.10055758
-0.06039207 -0.18708366 -0.022260055 -0.049139887 0.1880005 0.00079178833 0.07455772 0.05519998
0.022103934 0.17170605 -0.03835628 0.18336637 -0.20093316 -0.024969049 0.011074676 -0.020884875
-0.11944903 -0.055442825 -0.19090737 0.1639232 -0.13948958 -0.11672638 0.17349887 -0.0063613076
-0.109225035 -0.07168539 0.01954341 -0.03651514 0.027113091 0.10984217 -0.068195425 -0.17287737
0.18845963 0.06695734 -0.028907502 -0.08925971 -0.15821348 -0.0826292 0.057264943 -0.026738916
0.050570015 0.022070987 -0.07675158 0.030080192 0.004205487 0.14195558 -0.06809376 0.11128876
-0.117305964 -0.07077337 0.088133015 0.16813375 -0.13791597 0.06117641 0.08122395 0.08554597
-0.122376665 0.03164782 0.009312077 -0.076550886 0.11763202 0.14181925 0.066200875 -0.173043
0.08317976 -0.056022726 0.1004572 -0.053878747 0.047258385 -0.09479978 -0.022073163 0.15112114
-0.069203466 0.18744738 -0.00073502434 -0.020064324 -0.064067766 -0.099713005 -0.13183719 -0.087265216
00000000: e4f6 903b 4a62 e0bd f0a7 e9bd 03be 34be
00000010: 16b8 af3b 3244 cbbd 93be 1a3e a28a 3c3e
00000020: 103b dcbc 5ba3 56bd f5ad ce3c b723 acbc
00000030: b9d1 fc3d 8ffa c1bd 8b74 dd3d 3cd8 9f3d
00000040: af8e 6cbd 19da db3d 25b1 d0bd 2b7f 32bc
00000050: 9e61 f73a 75af 53be 8088 8dbd 26c4 92bd
00000060: c337 733e 29e8 3b3e 6638 443c 47d4 9b3c
00000070: ba38 11be 1012 093e 61ef 073e 60c7 b7bd
00000080: aa55 bbbd eef8 513d 2c92 0a3e ee72 5fbc
00000090: 682b 623d 7da7 ddbb dda8 b03d ff38 18be
000000a0: f951 c33b 4eb2 14be 6854 0e3e de25 283e
000000b0: f277 dfbc 5d76 993d 3904 22be 167b 31be
000000c0: 9e4d 32be 9eda cebc 2cd3 c3bc 4770 0a3e
000000d0: d940 1dbd 4df9 1e3d c7c6 83bd 9ca7 853d
000000e0: 320c 2a3e 70eb 2d3e d135 003d 36be b43d
000000f0: e824 6d3d 053c ef3d bcf2 f6ba 8452 f6bd
00000100: df80 03be 93f3 0e3e e50c 043d 5c62 13be
00000110: d4e8 40bd 8e67 cdbd 6487 53bd e5e2 f2bd
00000120: 3a4c 3ebd a7e5 30be dcfe 30be 0835 1dbe
00000130: 6c40 c2bd c702 3dbe 9e4d 36be 8128 ecb9
00000140: 8ee9 c83d 26f8 92b9 15ec 08be f520 20be
00000150: 88af 11be 1c93 49be 7087 033e 5cb4 463d
00000160: fd79 45be ee90 03be 9db7 d1bd 6d48 5d3d
00000170: 819f ea3b 600b b93d e361 233e a981 aebd
00000180: 3364 93bd cc71 15be 0f9e 64bd 0ed4 10bd
00000190: 66a8 d8bd b2b2 753d c335 1f3e 2081 b4bc
000001a0: 1fad 93bd 6045 1f3e 5f41 2c3e 638a 183e
000001b0: 8437 d73d 5926 96bd 41ee 983d 3851 34bd
000001c0: 33b3 bd3b a6bc 243e 5efb 46be 21d6 773c
000001d0: 6a94 203e 9f66 18bd 468c aabd f266 163e
000001e0: bf71 213e 590e 65bd 3550 573c 5e9d 043e
000001f0: b8b6 fdbd 4fea ab3d fbf6 f9bd ca71 50be
00000200: f2f0 8e3d a9c9 84bd 6334 2abe 7d9a c73d
00000210: 3720 d13b 0f92 373e 8dee d3bc 22f1 cd3d
00000220: ad5d 77bd dc92 3fbe b85a b6bc e846 49bd
00000230: 3483 403e 0490 4f3a b8b1 983d 6019 623d
00000240: 4f13 b53c b6d3 2f3e 7a1b 1dbd 65c4 3b3e
00000250: 6cc1 4dbe e48b ccbc 8f72 353c c216 abbc
00000260: b1a1 f4bd 0418 63bd 397d 43be 7cdb 273e
00000270: 5bd6 0ebe 3e0e efbd b0a9 313e 8472 d0bb
00000280: 60b1 dfbd cacf 92bd 8019 a03c e690 15bd
00000290: 461c de3c eef4 e03d 0baa 8bbd c406 31be
000002a0: 90fb 403e ee20 893d 6dcf ecbc cbcd b6bd
000002b0: b702 22be 7f39 a9bd a58e 6a3d 920b dbbc
000002c0: 8122 4f3d 37ce b43c ef2f 9dbd bc6a f63c
000002d0: 2fce 893b ce5c 113e be74 8bbd 5deb e33d
000002e0: 1c3e f0bd a1f1 90bd 157f b43d 412b 2c3e
000002f0: d839 0dbe 1e94 7a3d be58 a63d ba32 af3d
00000300: 9ea0 fabd 25a1 013d af91 183c b6c6 9cbd
00000310: 0ee9 f03d 1139 113e 5394 873d 2f32 31be
00000320: 265a aa3d 1678 65bd 81bc cd3d f6af 5cbd
00000330: 0292 413d 6326 c2bd c7d2 b4bc 80bf 1a3e
00000340: 8cba 8dbd 35f2 3f3e a6ae 40ba f05d a4bc
00000350: f635 83bd 5536 ccbd 5400 07be 1bb8 b2bd

conv1.bias f4 [8]
0.06470367 0.16501653 -0.03671703 0.048690423 -0.18670875 0.026926989 -0.1043136 -0.10892282
00000000: 5c83 843d 18fa 283e 9964 16bd 9c6f 473d
00000010: 9430 3fbe fd95 dc3c 5ea2 d5bd ed12 dfbd

conv2.weight f4 [16, 8, 3, 3]
0.08587748 0.016531227 0.02058738 -0.07802489 -0.052958347 -0.053638898 -0.06509239 -0.08997155
0.011784161 0.06724279 0.05240245 0.03609434 -0.0106855435 -0.05199948 0.04133849 0.10534104
-0.035983384 -0.04417109 0.004517813 -0.1125461 0.102188714 0.079692475 -0.03378296 0.010196722
0.10520359 -0.015284614 -0.12717731 0.011179947 -0.04307319 0.092961885 0.09568874 -0.06865429
0.02578766 0.06529196 -0.07415989 0.04107284 0.048866708 -0.12517993 -0.097221926 0.02753689
-0.0051138317 -0.087087415 -0.026505265 0.018412214 -0.022491483 -0.0884166 -0.0014165347 0.054631703
-0.037100196 0.00684303 0.07641235 0.046643928 -0.060115572 -0.051861633 -0.029193737 -0.07866476
0.045203734 -0.022243308 -0.036027208 -0.037700627 -0.04385725 0.08121411 -0.062660545 0.079210795
0.0563996 -0.111948945 0.08891621 0.061872162 -0.046847347 -0.040997673 -0.10175209 -0.071370654
0.18586521 0.12501708 -0.011572522 -0.09601578 -0.037580602 -0.22196345 0.15317008 0.04288874
0.026292894 -0.098994605 0.03905145 -0.091029875 -0.1075522 0.08003337 -0.16018851 0.05963391
0.08327794 0.068932645 -0.05073272 0.0714284 0.13948777 -0.05415716 0.039214466 0.008462486
-0.074330784 -0.10504507 -0.13244061 -0.053114586 0.017672552 -0.0629551 -0.025655162 0.083222866
0.06642942 0.0919388 -0.0963646 -0.12172349 0.0021291482 0.12008857 0.015635733 0.07496937
0.049906198 -0.0855082 0.05944908 -0.0051273075 -0.021619575 -0.09800016 -0.00599536 0.0048023895
0.069302656 -0.098236 -0.03757025 -0.063948326 0.020060657 0.025811728 -0.0144366855 -0.009097201
-0.14067918 0.02362331 -0.075072624 -0.14198506 0.08633461 -0.09206406 -0.008600365 -0.056252763
-0.042081922 -0.016766082 0.081064574 0.118423976 -0.021763751 -0.013791839 -0.008976196 0.08859535
0.09457343 -0.057233986 -0.06719361 0.00026672625 0.106080234 0.07806303 0.13379557 -0.037148025
0.116668604 0.012996151 0.034341287 -0.08433998 0.07804597 0.09380126 -0.07063618 0.11051278
-0.098728836 0.11277503 0.09451394 -0.04827393 -0.12342098 -0.0016830802 0.057483267 -0.010387848
-0.034548033 0.075802155 0.13532004 -0.103424884 -0.010146743 -0.08345476 0.0045320406 -0.120512135
-0.028180238 0.07057872 0.061243627 -0.02822992 0.042154334 0.011012489 0.06180541 -0.014034035
-0.11834626 0.010235306 0.017320536 0.039328784 -0.104374155 -0.08780154 0.039560407 0.087144405
-0.0319587 0.09673033 -0.02656558 -0.0137747405 -0.06963159 -0.10349147 -0.04194423 -0.042257454
-0.12156593 -0.09863246 0.129347 0.103810355 -0.10896651 -0.10680099 -0.05546524 -0.030348198
-0.07956673 -0.09318625 -0.012339929 -0.034408662 -0.06500607 0.062130604 0.048295435 -0.120039225
-0.0154783195 -0.0019124266 -0.028004017 0.01351185 -0.09516967 0.078453414 0.056134094 0.16010854
0.038528148 -0.06278911 0.0103422 0.08511052 0.08889723 0.09038079 -0.06702706 0.033299107
-0.02404634 -0.037396926 0.047947925 0.029154694 0.018691927 0.08486933 -0.031255156 0.044999953
0.06896326 0.13732934 0.015047922 -0.07078515 0.06165137 -0.027377864 0.06855379 -0.1123971
0.0068046036 0.03480335 -0.13385418 0.059812833 -0.08744955 0.08370294 0.047081787 0.0453934
00000000: 88e0 af3d 7f6c 873c dda6 a83c 83cb 9fbd
00000010: daea 58bd 76b4 5bbd 294f 85bd 0143 b8bd
00000020: 5b12 413c 96b6 893d f4a3 563d a9d7 133d
00000030: 6b12 2fbc 68fd 54bd 8c52 293d 0bbd d73d
00000040: 5063 13bd bfec 34bd 2a0a 943b 927e e6bd
00000050: 5148 d13d cf35 a33d 0060 0abd 2710 273c
00000060: fb74 d73d 516c 7abc c53a 02be 192c 373c
00000070: 836d 30bd cd62 be3d 75f8 c33d 9f9a 8cbd
00000080: a540 d33c cbb7 853d 24e1 97bd ff3b 283d
00000090: 7528 483d 2b2f 00be 4a1c c7bd 0b95 e13c
000000a0: ee91 a7bb e35a b2bd 9221 d9bc 36d5 963c
000000b0: 0f40 b8bc c313 b5bd 04ab b9ba 7ec5 5f3d
000000c0: 60f6 17bd 7f3b e03b 147e 9c3d b40d 3f3d
000000d0: bf3b 76bd dd6c 54bd b427 efbc fd1a a1bd
000000e0: 8d27 393d 9937 b6bc 4491 13bd f96b 1abd
000000f0: a9a3 33bd 9553 a63d 2c54 80bd 4539 a23d
00000100: 4403 673d 7d45 e5bd b419 b63d aa6d 7d3d
00000110: 01e3 3fbd 2ded 27bd 6663 d0bd c72a 92bd
00000120: 7353 3e3e 7a04 003e ad9a 3dbc eca3 c4bd
00000130: 1eee 19bd 634a 63be 9ed8 1c3e 1aac 2f3d
00000140: 3264 d73c afbd cabd 6af4 1f3d df6d babd
00000150: 5444 dcbd 89e8 a33d 7508 24be b042 743d
00000160: a08d aa3d 8f2c 8d3d 1dcd 4fbd 0e49 923d
00000170: e2d5 0e3e e6d3 5dbd 599f 203d 3da6 0a3c
00000180: bd3a 98bd df21 d7bd 839e 07be ae8e 59bd
00000190: 07c6 903c 9aee 80bd c62a d2bc c070 aa3d
000001a0: 260c 883d 694a bc3d ce5a c5bd 2a4a f9bd
000001b0: 2e89 0b3b fff0 f53d 8216 803c 8b89 993d
000001c0: 716a 4c3d ec1e afbd e180 733d f902 a8bb
000001d0: 891b b1bc 4fb4 c8bd ba74 c4bb 5d5d 9d3b
000001e0: 8dee 8d3d f52f c9bd 43e3 19bd 57f7 82bd
000001f0: 3f56 a43c 1e73 d33c d987 6cbc 6d0c 15bc
00000200: 340e 10be ac85 c13c adbf 99bd 8864 11be
00000210: 33d0 b03d 158c bcbd 8ce8 0cbc 4c69 66bd
00000220: 185e 2cbd 0659 89bc 2f05 a63d 4588 f23d
00000230: e549 b2bc 2af7 61bc e510 13bc 7b71 b53d
00000240: b7af c13d 2f6e 6abd ce9c 89bd 64d7 8b39
00000250: 9840 d93d 83df 9f3d b501 093e 8728 18bd
00000260: f3ef ee3d cfed 543c 73a9 0c3d 70ba acbd
00000270: 91d6 9f3d e01a c03d b4a9 90bd 8654 e23d
00000280: 5832 cabd 98f6 e63d 8690 c13d e2ba 45bd
00000290: 24c4 fcbd cd9a dcba 9373 6b3d cb31 2abc
000002a0: 3d82 0dbd 293e 9b3d 5691 0a3e 6dd0 d3bd
000002b0: 863e 26bc 54ea aabd 8381 943b 11cf f6bd
000002c0: 3eda e6bc 938b 903d 99da 7a3d 6f42 e7bc
000002d0: 06aa 2c3d ba6d 343c ab27 7d3d 02ef 65bc
000002e0: 865f f2bd fcb1 273c cce3 8d3c 3817 213d
000002f0: 1ec2 d5bd 4bd1 b3bd 180a 223d c478 b23d
00000300: 20e7 02bd 8d1a c63d 0fa0 d9bc 73af 61bc
00000310: 029b 8ebd 56f3 d3bd b7cd 2bbd 2716 2dbd
00000320: 8ff7 f8bd d1ff c9bd 8a73 043e 869a d43d
00000330: d529 dfbd 7aba dabd 852f 63bd c99c f8bc
00000340: e2f3 a2bd 6fd8 bebd 6a2d 4abc 19f0 0cbd
00000350: e721 85bd a97c 7e3d 6fd1 453d 20d7 f5bd
00000360: c798 7dbc 63aa faba ae68 e5bc ce60 5d3c
00000370: 51e8 c2bd 2fac a03d ddec 653d 7ef3 233e
00000380: b1cf 1d3d 9497 80bd 5572 293c 6d4e ae3d
00000390: c00f b63d 9019 b93d 7c45 89bd a564 083d
000003a0: d4fc c4bc 852d 19bd 0b65 443d d3d5 ee3c
000003b0: d01f 993c f9cf ad3d 6805 00bd df51 383d
000003c0: 9c3c 8d3d 10a0 0c3e 8f8b 763c cef7 90bd
000003d0: 2686 7c3d 8b47 e0bc ee65 8c3d 7330 e6bd
000003e0: 27f9 de3b f58d 0e3d 1211 09be 4dfe 743d
000003f0: c018 b3bd 726c ab3d d5d8 403d 6eee 393d

conv2.bias f4 [16]
-0.11348727 0.06583563 -0.10645031 0.026552739 0.06475071 0.07805595 -0.10383339 -0.013683117
-0.05425855 0.07944173 0.11183136 0.09549105 -0.0499842 -0.100788765 -0.07779738 0.031392716
00000000: 046c e8bd d5d4 863d 9f02 dabd 2185 d93c
00000010: 059c 843d ccdb 9f3d 9aa6 d4bd 272f 60bc
00000020: 373e 5ebd 59b2 a23d d707 e53d d090 c33d
00000030: 3cbc 4cbd 576a cebd 3c54 9fbd a695 003d

conv3.weight f4 [32, 16, 3, 3]
-0.06511662 -0.085007735 0.036355592 -0.06749612 0.03491288 -0.091562554 -0.033754494 0.03362347
-0.022516858 -0.06405888 -0.042678967 -0.019941302 0.060451668 -0.09795647 -0.032596212 -0.055896994
-0.041510634 -0.078069024 0.010289118 0.04866475 -0.04353926 0.05867728 -0.041013326 -0.016737195
-0.021077257 0.016431084 -0.06302072 0.022295441 -0.08881423 0.034555532 0.014314413 0.029190646
-0.07764203 0.048730772 -0.027871102 0.068408646 -0.012227222 -0.049366668 0.031356975 0.01684843
-0.08599108 -0.06583436 -0.06893342 -0.07142624 0.034352414 -0.024833871 0.0128493 -0.08452813
-0.09721417 -0.09014389 -0.08748363 -0.058289055 0.031515416 0.053795673 0.0023022883 -0.06015189
0.0016231993 -0.08674984 0.0420009 0.018584937 -0.058178153 -0.007592958 -0.020393455 0.027762335
-0.019820863 0.034180146 0.023585333 -0.011149566 0.052499596 0.0054251873 0.054338917 -0.02450019
0.021836178 -0.09226284 -0.027808394 -0.081459604 -0.06621601 0.019251566 0.035808977 -0.02695127
-0.072288364 -0.075367846 0.05076099 0.0018089161 0.04451388 0.051382452 0.042053856 0.036069755
-0.06492387 -0.07632827 -0.08962802 -0.024214836 0.023205563 0.0488486 -0.052192263 -0.078631334
-0.047976024 -0.058122966 0.024659777 0.020856518 0.037837844 0.044544414 -0.017169854 0.03875523
-0.06912824 -0.02973049 -0.06349267 -0.07186732 0.014778944 -0.0018561948 0.030933546 -0.050966684
0.05008741 -0.038235113 -0.04735505 0.0615102 -0.023724638 0.014351928 0.022652546 -0.007528714
-0.072460026 0.018213317 0.03380463 0.04324464 -0.02874298 -0.012630948 0.038619794 -0.08563869
-0.09459042 -0.020066999 0.0016547624 -0.0076762117 -0.052451484 0.039577644 0.02105266 0.053609155
-0.09338346 -0.05066064 -0.017858427 -0.089464046 0.038808372 0.07037726 0.0023768013 -0.06304218
0.06536986 -0.05570496 -0.052628417 -0.004323362 -0.0016736005 0.001912046 0.014541524 -0.026660394
0.010558817 0.0052284515 0.034422826 0.02909409 0.06455345 -0.076475725 0.016886437 0.018790513
-0.027515575 0.008843729 -0.06893481 -0.033037104 -0.08585188 0.023110213 -0.014825335 0.015081069
0.03426821 -0.037804674 -0.06818498 -0.08979222 -0.050092634 -0.037014626 -0.035330035 -0.06764796
-0.0262454 -0.035899814 0.047171365 -0.007917176 0.033803314 -0.0051913406 -0.05103521 0.060754348
0.03848858 -0.025417725 -0.010403954 -0.02596427 -0.054902468 0.050939307 0.021351077 -0.028810084
-0.012020612 -0.0048798337 -0.03647826 0.019866286 -0.0014189044 -0.06510407 0.026116805 -0.09589798
-0.01958116 0.02054006 -0.03227268 -0.08548545 0.015795782 0.052838363 -0.041441582 0.06450619
-0.058832377 -0.08196937 0.04343982 0.031566333 -0.05511217 -0.07787313 0.01596425 -0.013132941
-0.026652168 0.015613532 -0.08376762 0.0059428904 -0.08654295 0.005731488 -0.08822246 -0.037505157
-0.081125684 0.04784217 0.008147135 -0.041917093 -0.0019573525 0.06477565 -0.0014501427 -0.047620486
0.0046816976 -0.09489858 -0.052562036 0.03296956 0.013274483 -0.055226684 -0.043549143 0.011392876
-0.041304357 0.045102354 -0.06474351 0.0039474266 0.010049942 -0.009292395 0.048922174 -0.07148249
0.013754576 -0.02746334 0.0072404803 0.024588713 -0.06216293 0.063575596 -0.024082957 -0.04340396
00000000: dd5b 85bd 8918 aebd 9ae9 143d 683b 8abd
00000010: cf00 0f3d 2685 bbbd 2742 0abd c4b8 093d
00000020: 4675 b8bc 4d31 83bd 24d0 2ebd f15b a3bc
00000030: 2b9c 773d 679d c8bd 9b83 05bd 3ff4 64bd
00000040: 0e07 2abd a7e2 9fbd b093 283c b054 473d
00000050: 3956 32bd 9657 703d 97fd 27bd 711c 89bc
00000060: 36aa acbc 7b9a 863c 0211 81bd eea4 b63c
00000070: 3ce4 b5bd 1a8a 0d3d 0087 6a3c 3921 ef3c
00000080: c902 9fbd eb99 473d f051 e4bc d519 8c3d
00000090: b054 48bc b434 4abd 2c70 003d b805 8a3c
000000a0: 171c b0bd 2ad4 86bd f72c 8dbd ec47 92bd
000000b0: 1eb5 0c3d 6770 cbbc df85 523c 161d adbd
000000c0: 3918 c7bd 5c9d b8bd 9e2a b3bd 81c0 6ebd
000000d0: 4f16 013d da58 5c3d fde1 163b d461 76bd
000000e0: 88c1 d43a e6a9 b1bd 2309 2c3d 703f 983c
000000f0: 374c 6ebd 59ce f8bb 2d10 a7bc d66d e33c
00000100: 5d5f a2bc 7b00 0c3d 0736 c13c abac 36bc
00000110: d109 573d c5c5 b13b 7c92 5e3d 9fb4 c8bc
00000120: c9e1 b23c 4df4 bcbd 6ece e3bc 4bd4 a6bd
00000130: 429c 87bd 76b5 9d3c 6fac 123d e9c8 dcbc
00000140: ec0b 94bd 755a 9abd c1ea 4f3d 2719 ed3a
00000150: 3054 363d 6876 523d aa40 2c3d e1bd 133d
00000160: cef6 84bd ff51 9cbd e58e b7bd 315e c6bc
00000170: 9819 be3c 7815 483d 8ec7 55bd 7709 a1bd
00000180: 8282 44bd 5912 6ebd 4d03 ca3c 4adb aa3c
00000190: dbfb 1a3d 3474 363d cba7 8cbc cebd 1e3d
000001a0: 1b93 8dbd 5b8d f3bc 7208 82bd 2c2f 93bd
000001b0: 6223 723c 904b f3ba 5968 fd3c 71c2 50bd
000001c0: 7528 4d3d 6c9c 1cbd 5ef7 41bd 1ff2 7b3d
000001d0: 2c5a c2bc 5924 6b3c d591 b93c 6eb3 f6bb
000001e0: ec65 94bd 1834 953c b976 0a3d 4b21 313d
000001f0: 6676 ebbc 09f2 4ebc ca2f 1e3d 5663 afbd
00000200: 9fb8 c1bd 8c63 a4bc 9de4 d83a bb88 fbbb
00000210: 5ed7 56bd 2b1c 223d a176 ac3c 4695 5b3d
00000220: d43f bfbd 8881 4fbd d64b 92bc ed38 b7bd
00000230: 87f5 1e3d f421 903d 1cc4 1b3b 421c 81bd
00000240: a2e0 853d e22a 64bd e590 57bd fdaa 8dbb
00000250: b75c dbba 9e9d fa3a 933f 6e3c e666 dabc
00000260: e3fe 2c3c 6e53 ab3b f3fe 0c3d bb56 ee3c
00000270: 9934 843d 4e9f 9cbd 6d55 8a3c 90ee 993c
00000280: 5868 e1bc 4ae5 103c b22d 8dbd ea51 07bd
00000290: 1cd3 afbd a151 bd3c f6e5 72bc 9716 773c
000002a0: d35c 0c3d 13d9 1abd 91a4 8bbd fce4 b7bd
000002b0: ef2d 4dbd a69c 17bd 3ab6 10bd 038b 8abd
000002c0: 9800 d7bc af0b 13bd c336 413d 0bb7 01bc
000002d0: 5875 0a3d 1f1c aabb 4c0a 51bd 8dd9 783d
000002e0: 34a6 1d3d d538 d0bc 5975 2abc 05b3 d4bc
000002f0: 69e1 60bd bca5 503d 74e8 ae3c 2003 ecbc
00000300: 1af2 44bc 03e7 9fbb 3a6a 15bd 9fbe a23c
00000310: 88fa b9ba 4855 85bd e9f2 d53c 2966 c4bd
00000320: ab68 a0bc a143 a83c 5c30 04bd ff12 afbd
00000330: 2866 813c 0a6d 583d a6be 29bd d21b 843d
00000340: 38fa 70bd 8fdf a7bd f4ed 313d b34b 013d
00000350: 4cbd 61bd f37b 9fbd 75c7 823c 8c2b 57bc
00000360: a655 dabc e6cf 7f3c 5c8e abbd 94bc c23b
00000370: 6e3d b1bd 35cf bb3b faad b4bd 029f 19bd
00000380: 3925 a6bd 27f6 433d 907b 053c 42b1 2bbd
00000390: ed46 00bb 19a9 843d b712 beba b30d 43bd
000003a0: ed68 993b 305a c2bd 4a4b 57bd 170b 073d
000003b0: 387d 593c 6035 62bd 9660 32bd 2fa9 3a3c
000003c0: c22e 29bd 3fbd 383d 3f98 84bd 6a59 813b
000003d0: 83a8 243c 213f 18bc 9e62 483d 6965 92bd
000003e0: e05a 613c ccfa e0bc 8d41 ed3b 456e c93c
000003f0: 8e9e 7ebd ec33 823d 9f49 c5bc 5ac8 31bd

conv3.bias f4 [32]
0.03093131 0.041547254 0.023538342 0.06332312 -0.02264516 -0.044404678 0.03410538 0.042270053
-0.018551126 0.0014554322 -0.015145332 0.0011286964 -0.054764524 -0.00059899833 0.06642974 0.01800365
-0.086950876 -0.08537132 -0.055415135 -0.039212085 -0.0107554225 -0.07249779 -0.054744568 -0.06754721
0.046807624 -0.052361514 -0.010446897 0.0023604431 0.05369722 0.022222355 0.03750646 -0.08341472
00000000: a963 fd3c 742d 2a3d 7bd3 c03c 8daf 813d
00000010: 5882 b9bc aee1 35bd 15b2 0b3d 5d23 2d3d
00000020: 88f8 97bc 33c4 be3a 2024 78bc c4f0 933a
00000030: c450 60bd 1906 1dba 510c 883d 647c 933c
00000040: 4d13 b2bd 29d7 aebd fbfa 62bd da9c 20bd
00000050: 8337 30bc b979 94bd d73b 60bd 3156 8abd
00000060: 5ab9 3f3d 0779 56bd 7629 2bbc aab1 1a3b
00000070: 9ef1 5b3d a80b b63c 60a0 193d 56d5 aabd

fc1.weight f4 [128, 1408]
-0.020349158 -0.012530518 0.015006239 -0.010474539 0.028817829 0.025431307 -0.009972826 -0.01080344
-0.002974978 -0.01918839 -0.013513093 0.029474575 0.019510467 0.0018056047 -0.008309145 -0.015187383
0.03070413 0.027194249 0.0061957375 -0.008566041 0.022560667 -0.004604054 0.009994855 -0.01851605
-0.019123737 0.011725344 0.020088281 0.022158382 0.025042873 -0.018161746 -0.019972924 0.01436092
0.030016609 0.0017731555 -0.011987956 0.015702007 0.019682474 -0.015584877 0.013755277 0.029607477
0.03060029 0.026871728 0.0133703295 0.000100053796 0.025210837 0.013240931 0.027703285 0.023368753
-0.009984906 0.014151862 -0.0054936735 0.024720147 0.00045022444 0.02949199 -0.02121015 0.020101432
-0.006722639 0.021804327 -0.021843022 -0.00097604573 -0.020226844 0.018539105 0.011336147 -0.0113387825
0.006123987 -0.0064132903 0.0029816118 0.02605765 0.018053738 0.020159595 -0.010710437 0.016067969
-0.013867346 0.00556344 -0.0026567536 0.02541742 -0.021220237 0.027073223 0.014662247 -0.018050421
-0.0012262627 -0.008269386 0.0016273976 0.023418544 0.0034736705 0.0031534252 0.01388587 -0.0026978445
0.005374992 0.028412476 0.0023253316 -0.0057760207 -0.03140005 -0.0014207287 -0.00768895 -0.0013415066
0.019075682 0.012330062 0.016241256 -0.019309131 0.008810539 -0.014102584 -0.0045838673 0.016085243
-0.0067361747 -0.019414132 0.023652647 -0.00046328892 -0.01789908 -0.012218786 0.019957028 -0.02358529
0.024387766 0.015951551 -0.021916559 0.014856084 0.005130702 -0.010025044 0.023797495 0.008824296
0.011723618 -0.014596911 -0.02392793 -0.016684683 -0.03191268 0.008709675 0.012793218 -0.02381236
-0.019472538 -0.016657272 0.019133411 0.008867779 0.0017765135 8.7263696e-05 0.052888364 0.0047125514
0.048264068 -0.045061044 -0.07073193 -0.03004637 -0.010739602 -0.0035677394 -0.04065148 -0.026644882
-0.060584106 0.04579871 -0.013016259 0.0053477976 0.025716912 -0.018943556 0.03221547 0.02202404
-0.020013757 -0.046237733 -0.008570154 -0.015592386 0.04633285 0.0015071271 -0.058173995 0.0011006627
-0.02259167 -0.054510705 -0.003147456 -0.009727815 -0.033716816 0.025290288 0.002941616 -0.00682788
0.03416772 0.048135173 0.023852468 0.012819993 0.013046821 -0.006745607 0.03302257 -0.0125077125
0.012494481 0.010125484 0.009531555 0.015922239 0.0056636157 0.02654986 0.008144628 -0.020782892
0.020429645 -0.021551026 0.025540657 -0.009770782 -0.017301248 -0.015982816 0.027904585 -0.0016443373
0.016375354 -0.0116408495 0.011587028 0.011248091 -0.0019657698 0.010946836 -0.013811966 0.02348821
0.0044623893 0.016824491 -0.007273143 -0.01760955 -0.01820281 0.0029235883 -0.0197913 0.012979258
0.007032938 0.0116544925 0.021836998 -0.012989525 -0.008458896 0.025857544 0.01813276 -0.0093480265
0.015511514 -0.010865516 -0.0049363836 0.0030195531 -0.005726437 -0.0069718966 -0.016523499 -0.0034298114
-0.021762412 0.025649088 -0.060407814 -0.014467806 0.039371144 0.059035596 0.040157776 0.014958943
-0.071773276 0.085406184 -0.040367387 0.0077322833 -7.80712e-05 -0.027185403 -0.038888745 -0.0077316226
-0.00013040731 0.027694905 0.0014602694 -0.0016405347 -0.018612064 -0.07832323 0.005150648 0.01959604
-0.014361854 0.027636565 0.013032108 0.019409733 0.039320283 0.049980167 0.002101314 -0.010326244
00000000: 47b3 a6bc cd4c 4dbc badc 753c 679d 2bbc
00000010: 5e13 ec3c 5155 d03c 1065 23bc e900 31bc
00000020: d9f7 42bb f830 9dbc 0566 5dbc aa74 f13c
00000030: 6ad4 9f3c 0aaa ec3a 1523 08bc 80d4 78bc
00000040: 3a87 fb3c 79c6 de3c 9d05 cb3b 9458 0cbc
00000050: 26d1 b83c 9bdd 96bb 76c1 233c f9ae 97bc
00000060: 62a9 9cbc a81b 403c 2e90 a43c 7f85 b53c
00000070: b626 cd3c f1c7 94bc 429e a3bc 104a 6b3c
00000080: 64e5 f53c 3a69 e83a 2269 44bc 7fa1 803c
00000090: 243d a13c b657 7fbc d05d 613c 618b f23c
000000a0: 76ad fa3c 1922 dc3c 3a0f 5b3c f9d3 d138
000000b0: f586 ce3c 7df0 583c 00f2 e23c d46f bf3c
000000c0: bb97 23bc 36dd 673c 4604 b4bb e881 ca3c
000000d0: 1a0c ec39 3099 f13c e9c0 adbc c2ab a43c
000000e0: 9549 dcbb fd9e b23c 23f0 b2bc 52dd 7fba
000000f0: c4b2 a5bc 52df 973c 3fbb 393c 4dc6 39bc
00000100: baab c83b 9426 d2bb 2567 433b da76 d53c
00000110: 6fe5 933c bc25 a53c d47a 2fbc f9a0 833c
00000120: dd33 63bc 844d b63b ee1c 2ebb 3138 d03c
00000130: 10d6 adbc aac8 dd3c ec39 703c 7ade 93bc
00000140: 8cba a0ba 527c 07bc 674e d53a 3fd8 bf3c
00000150: 85a6 633b b2a9 4e3b 8f81 633c 52ce 30bb
00000160: b320 b03b 48c1 e83c 9764 183b c644 bdbb
00000170: 579d 00bd bf37 baba 96f3 fbbb 7ed5 afba
00000180: 9b44 9c3c 0704 4a3c 620c 853c 2f2e 9ebc
00000190: 145a 103c 860e 67bc 4434 96bb 33c5 833c
000001a0: 21bb dcbb 630a 9fbc 32c3 c13c 96e5 f2b9
000001b0: 17a1 92bc 4e31 48bc ec7c a33c f035 c1bc
000001c0: dac8 c73c d4ac 823c 5b8a b3bc ef66 733c
000001d0: 731f a83b 1540 24bc f7f2 c23c c893 103c
000001e0: 6b14 403c e227 6fbc 8204 c4bc 51ae 88bc
000001f0: dfb6 02bd 06b3 0e3c a59a 513c 2312 c3bc
00000200: df84 9fbc d574 88bc acbd 9c3c 294a 113c
00000210: e7d9 e83a 5701 b738 78a1 583d bf6b 9a3b
00000220: 8bb0 453d ee91 38bd e7db 90bd ce23 f6bc
00000230: 28f5 2fbc bcd0 69bb 2b82 26bd 5e46 dabc
00000240: 0a27 78bd 6e97 3b3d 2642 55bc 943c af3b
00000250: 46ac d23c 842f 9bbc 5ef4 033d c26b b43c
00000260: e4f3 a3bc c763 3dbd d569 0cbc 3577 7fbc
00000270: 84c7 3d3d cb8a c53a db47 6ebd 1d44 903a
00000280: 2a12 b9bc 9e46 5fbd 8d45 4ebb 6a61 1fbc
00000290: a51a 0abd 942d cf3c 21c8 403b 69bc dfbb
000002a0: 73f3 0b3d 6329 453d 4066 c33c f30a 523c
000002b0: 55c2 553c 410a ddbb ad42 073d 26ed 4cbc
000002c0: a7b5 4c3c 5ce5 253c 3d2a 1c3c 5b6f 823c
000002d0: da95 b93b 187f d93c 0c71 053c e240 aabc
000002e0: 125c a73c c78b b0bc a43a d13c a115 20bc
000002f0: 59bb 8dbc 65ee 82bc 2898 e43c ce86 d7ba
00000300: 9b25 863c 43b9 3ebc 85d7 3d3c ea49 383c
00000310: 25d4 00bb 5c5a 333c 964b 62bc 596a c03c
00000320: 3c39 923b 84d3 893c 8c53 eebb e741 90bc
00000330: 0f1e 95bc ac99 3f3b 5d21 a2bc f4a6 543c
00000340: 8f74 e63b 7cf2 3e3c 81e3 b23c 04d2 54bc
00000350: 2e97 0abc 33d3 d33c 278b 943c 7728 19bc
00000360: 0124 7e3c 4705 32bc 63c1 a1bb b2e3 453b
00000370: d6a4 bbbb 8274 e4bb 4a5c 87bc b0c6 60bb
00000380: 1647 b2bc 091e d23c 2f6e 77bd 600a 6dbc
00000390: a343 213d 4fcf 713d 7b7c 243d 5b16 753c
000003a0: defd 92bd 70e9 ae3d 4658 25bd 185f fd3b
000003b0: 28ba a3b8 ecb3 debc ce49 1fbd 8d59 fdbb
000003c0: f2bd 08b9 6de0 e23c 8366 bf3a 3607 d7ba
000003d0: 5478 98bc ee67 a0bd c4c6 a83b e087 a03c
000003e0: fb4d 6bbc 1466 e23c 9f84 553c 2901 9f3c
000003f0: 4e0e 213d 01b8 4c3d 33b6 093b 682f 29bc

fc1.bias f4 [128]
-0.02156252 0.01037604 0.0011823007 -0.0032650975 -0.021012874 -0.018154388 -0.0065582036 -0.021076825
0.019690009 -0.009171774 0.020133303 -0.011562463 0.0043540145 0.020716589 0.0011221314 0.019170398
-0.006292763 -0.0009517391 -0.012838887 -0.021052238 -0.006226055 -0.010339665 -0.000108651286 -0.010594688
0.018153507 -0.008305064 -0.005808442 0.028556457 0.0022530959 0.017432805 0.004506923 -0.012237805
-0.0062614963 -0.017778186 -0.018921223 -0.005943879 -0.019671706 -0.027162557 0.004624586 -0.02234809
0.02451708 0.020643694 0.0013098152 0.027125515 -7.394142e-05 0.0075902967 -0.005426098 -0.020483354
0.022171693 0.0019578305 -0.00079104776 0.0066362694 0.01419203 0.0109216925 -0.012908093 -0.02426779
-0.017122693 0.006974549 0.005950169 0.011044511 -0.0018128376 -0.016521255 0.019035235 0.019717598
-0.015432888 -0.006199154 -0.0025261294 -0.011716199 0.006136977 -0.017915433 0.022068234 -0.018121187
-0.013469602 0.0007821845 0.013108925 -0.03224057 -0.003976641 0.021928187 0.010230245 0.012093111
0.00020883452 -0.0051240423 0.0038455785 0.008431859 -0.005111512 -0.0054692775 -0.007142069 0.005977422
0.008703555 -0.024617033 -0.03118575 -0.0057436125 -0.0032714608 0.0039626053 -0.0011415462 -0.020053778
0.016219242 0.01858726 0.014815141 0.013880676 0.009872948 -0.029808832 0.0107556 0.0064857337
-0.00317047 -0.01125286 0.03216527 0.010284338 0.017282002 0.0013066794 -0.015740795 -0.023995169
0.018688595 0.02326086 -0.012043328 0.0024249922 -0.008089898 0.02836444 -0.0046472517 -0.017512042
0.0005762891 0.00045598086 -0.026814643 -0.022289641 -0.0034384697 0.013896825 0.018366432 -0.021959482
00000000: e2a3 b0bc 4400 2a3c 6ef7 9a3a 3ffb 55bb
00000010: 3123 acbc 83b8 94bc 33e6 d6bb 4ea9 acbc
00000020: f14c a13c 3545 16bc 99ee a43c 7c70 3dbc
00000030: 1fac 8e3b d6b5 a93c 7b14 933a 3d0b 9d3c
00000040: 8633 cebb 217e 79ba 325a 52bc be75 acbc
00000050: ef03 ccbb b367 29bc b7db e3b8 5895 2dbc
00000060: aab6 943c f711 08bc be54 bebb 3bef e93c
00000070: ada8 133b 3ecf 8e3c cfae 933b 1381 48bc
00000080: 3d2d cdbb 8fa3 91bc ae00 9bbc dfc4 c2bb
00000090: 8f26 a1bc 0384 debc d789 973b 5713 b7bc
000000a0: 0bd8 c83c f71c a93c 1bae ab3a 5436 de3c
000000b0: ff10 9bb8 06b8 f83b 69cd b1bb b5cc a7bc
000000c0: 69a1 b53c f24e 003b 515e 4fba 1075 d93b
000000d0: b085 683c e6f0 323c 777c 53bc 3fcd c6bc
000000e0: e444 8cbc c28a e43b a3f9 c23b 09f4 343c
000000f0: bc9c edba 9557 87bc c8ef 9b3c cd86 a13c
00000100: 39da 7cbc 4622 cbbb 6b8d 25bb 4df5 3fbc
00000110: b218 c93b 63c3 92bc 71c8 b43c e272 94bc
00000120: 9baf 5cbc 830b 4d3a d1c6 563c b00e 04bd
00000130: 7c4e 82bb bea2 b33c c29c 273c 2f22 463c
00000140: 97fa 5a39 95e7 a7bb 1a06 7c3b c825 0a3c
00000150: 787e a7bb a037 b3bb 0408 eabb 40de c33b
00000160: 5b99 0e3c a9a9 c9bc 4279 ffbc ea34 bcbb
00000170: 0166 56bb bed8 813b ef9f 95ba d247 a4bc
00000180: 37de 843c 4f44 983c 35bb 723c c66b 633c
00000190: 25c2 213c a731 f4bc 4238 303c 4786 d43b
000001a0: a9c7 4fbb ea5d 38bc bbbf 033d a47f 283c
000001b0: fc92 8d3c e344 ab3a d7f2 80bc 8491 c4bc
000001c0: d318 993c 8f8d be3c 6151 45bc 9eec 1e3b
000001d0: 7e8b 04bc 8b5c e83c f947 98bb 6a75 8fbc
000001e0: 1b12 173a b710 ef39 62aa dbbc c498 b6bc
000001f0: f357 61bb 82af 633c 3375 963c 5fe4 b3bc

fcs.0.weight f4 [36, 128]
-0.0667059 -0.023181332 -0.08539725 -0.059039418 -0.029994031 0.01910918 -0.018282717 -0.10019536
0.0025475943 -0.078165404 -0.029658645 -0.03879323 -0.061405577 0.03316848 -0.06914869 -0.022516275
0.059281155 -0.026348231 0.053827424 0.054859146 -0.074769855 -0.037735857 -0.042946108 -0.0051648174
0.053818528 0.06905561 0.08114348 0.027468847 -0.074371375 0.04006243 -0.015841225 0.05895214
0.015372986 0.05994814 -0.04542784 -0.0651209 0.0520429 0.032313164 -0.07015505 0.022162583
-0.028008597 -0.047888342 -0.00031745076 0.07119077 -0.04762049 0.0071319984 -0.07638318 0.046283044
-0.04076827 0.064043276 -0.051012814 0.053404115 0.05341189 -0.061022695 0.018946454 0.019001933
0.026623452 -0.06689819 0.052177947 -0.039356828 -0.059254505 0.08786044 -0.070287205 -0.043792933
-0.018231552 -0.012892277 0.050092347 -0.00796591 -0.006672091 -0.05022694 -0.04295776 0.003036622
0.09365769 -0.07162946 0.062272657 0.09427387 -0.0229851 -0.04199099 -0.054488342 -0.0685771
-0.027689291 0.01925516 -0.024110436 0.012944727 0.01400121 -0.09395512 -0.050719324 -0.070748575
0.04968123 -0.09670589 -0.049623467 -0.048364706 0.02834602 0.081880085 0.06165244 0.05879852
-0.070225455 0.009026534 0.019784024 0.09809403 -0.07384009 0.0021026514 0.081283286 0.046316322
0.090143405 -0.04346572 -0.049069177 0.030625649 -0.050210353 -0.1005817 0.08025361 -0.010342416
-0.077370726 0.051135875 0.0015647478 0.0056737713 -0.022887941 -0.025031785 -0.030538393 0.105765514
-0.015385835 -0.020368686 0.09003173 -0.060331102 0.034898702 -0.028684622 0.055105124 0.009511532
0.079599425 0.06087846 0.003634605 -0.05203173 -0.04572766 0.026974231 0.08506269 0.045064118
0.009130264 0.025796063 -0.008724776 0.018400298 0.007717211 0.020188315 0.036314625 0.029204141
0.060758673 -4.19274e-06 -0.060731657 0.004230929 -0.036180846 0.05004593 0.050391633 0.07634722
0.01260878 0.033493068 0.017709857 0.084532015 0.0477034 0.07644705 -0.025674583 -0.04585175
0.061624985 -0.07680133 -0.038361914 0.032443296 0.0034197299 -0.058644775 -0.00037755852 -0.008497589
0.08005858 -0.079685375 -0.0653461 -0.07022204 0.071185105 -0.06418272 0.08583962 0.04247976
0.042329457 0.06640445 -0.060674127 0.0129306 0.050517235 -0.066644475 0.016421605 -0.060003933
-0.028061897 -0.0838961 0.03398725 -0.06901182 -0.04390969 0.038091928 -0.04777958 -0.027974224
0.04791108 -0.07176352 0.057674795 -0.050248962 0.032017883 -0.0075303135 -0.015050645 -0.009344576
-0.04786718 -0.071497716 -0.08574829 -0.08481854 -0.07823734 -0.020519288 -0.03242996 0.0683519
0.05706175 0.04987143 -0.07663077 0.032589126 -0.009419597 0.05729549 0.022515722 0.0656839
0.05595573 -0.078805916 -0.0793193 0.05200378 -0.04194338 -0.01686814 0.049132492 0.05376093
-0.07152801 0.0020039715 -0.042465504 -0.05135646 -0.034185044 0.032795127 0.033860385 -0.046712827
0.02768302 -0.048980705 -0.011508243 0.00053830724 -0.058905926 0.001345397 -0.062439367 0.04674232
-0.048582066 0.03277207 -0.005498758 0.0036407486 -0.026069604 -0.061882272 -0.052542377 0.06641597
0.013046589 -0.0024669887 0.035318613 0.08038977 0.0336953 -0.084423356 -0.04113183 -0.074284375
00000000: 1a9d 88bd c7e6 bdbc c1e4 aebd 51d3 71bd
00000010: 0bb6 f5bc db8a 9c3c a3c5 95bc 3a33 cdbd
00000020: 8af5 263b 2f15 a0bd b0f6 f2bc a6e5 1ebd
00000030: 6a84 7bbd acdb 073d d49d 8dbd 0d74 b8bc
00000040: ccd0 723d 3fd8 d7bc 257a 5c3d fcb3 603d
00000050: f020 99bd ea90 1abd 42e8 2fbd a13d a9bb
00000060: d170 5c3d 076d 8d3d 8e2e a63d 5906 e13c
00000070: 0550 98bd 8118 243d 75c5 81bc cd77 713d
00000080: fade 7b3c 2e8c 753d 8b12 3abd 1b5e 85bd
00000090: f02a 553d cf5a 043d 73ad 8fbd 4e8e b53c
000000a0: 4972 e5bc 9126 44bd 856f a6b9 77cc 913d
000000b0: b40d 43bd 8ab3 e93b c96e 9cbd 4a93 3d3d
000000c0: a1fc 26bd 1f29 833d d0f2 50bd 46be 5a3d
000000d0: 6dc6 5a3d eff2 79bd 9835 9b3c f1a9 9b3c
000000e0: 6d19 da3c eb01 89bd 8bb8 553d a034 21bd
000000f0: dab4 72bd 2df0 b33d bdf2 8fbd 3860 33bd
00000100: 565a 95bc 213a 53bc a22d 4d3d 7383 02bc
00000110: 8ea1 dabb c4ba 4dbd 7af4 2fbd 1002 473b
00000120: 9acf bf3d 77b2 92bd 9d11 7f3d a912 c13d
00000130: 404b bcbc bffe 2bbd 2b2f 5fbd 2772 8cbd
00000140: a7d4 e2bc ffbc 9d3c 4083 c5bc 1f16 543c
00000150: 5565 653c 8b6b c0bd 11bf 4fbd a1e4 90bd
00000160: 8c7e 4b3d bd0d c6bd fa41 4bbd 121a 46bd
00000170: ea35 e83c bfb0 a73d 4587 7c3d b8d6 703d
00000180: 5dd2 8fbd 07e4 133c 1b12 a23c 86e5 c83d
00000190: 7939 97bd a3cc 093b da77 a63d 2fb6 3d3d
000001a0: 1b9d b83d 1c09 32bd c3fc 48bd a4e2 fa3c
000001b0: 5fa9 4dbd c7fd cdbd 015c a43d 3d73 29bc
000001c0: 8b74 9ebd da73 513d 3918 cd3a 0beb b93b
000001d0: 7e7f bbbc 750f cdbc a72b fabc 979b d83d
000001e0: df14 7cbc 3bdc a6bc 8e62 b83d bf1d 77bd
000001f0: f1f1 0e3d 03fc eabc e9b5 613d 42d6 1b3c
00000200: 0605 a33d b15b 793d 8e32 6e3b 391f 55bd
00000210: ed4c 3bbd 10f9 dc3c 5935 ae3d 2795 383d
00000220: 1a97 153c 4452 d33c 5df2 0ebc 39bc 963c
00000230: a8e0 fc3b f761 a53c a5be 143d 863d ef3c
00000240: 16de 783d 5daf 8cb6 c2c1 78bd 9ba3 8a3b
00000250: 5e32 14bd f6fc 4c3d 7567 4e3d ee5b 9c3d
00000260: 0e95 4e3c 0730 093d 4314 913c 1f1f ad3d
00000270: a464 433d 4590 9c3d 8153 d2bc 0bcf 3bbd
00000280: 7b6a 7c3d 044a 9dbd 6221 1dbd 43e3 043d
00000290: 8c1d 603b 8135 70bd 0cf3 c5b9 7939 0bbc
000002a0: c1f5 a33d 1632 a3bd 2dd4 85bd 93d0 8fbd
000002b0: 7fc9 913d 3b72 83bd afcc af3d 42ff 2d3d
000002c0: a761 2d3d 0eff 873d 6f85 78bd deda 533c
000002d0: 29eb 4e3d e67c 88bd 9a86 863c afc6 75bd
000002e0: 10e2 e5bc b8d1 abbd 3736 0b3d 1256 8dbd
000002f0: a6da 33bd 4806 1c3d 85b4 43bd 332a e5bc
00000300: 693e 443d c1f8 92bd 683c 6c3d dbd1 4dbd
00000310: 2f25 033d d9c0 f6bb fb96 76bc fe19 19bc
00000320: 6010 44bd 656d 92bd cd9c afbd 58b5 adbd
00000330: e63a a0bd 1118 a8bc 47d5 04bd 15fc 8b3d
00000340: 95b9 693d fc45 4c3d 98f0 9cbd 2d7c 053d
00000350: a754 1abc adae 6a3d e472 b83c 4885 863d
00000360: d631 653d ff64 a1bd 2872 a2bd ea01 553d
00000370: d2cc 2bbd 0e2f 8abc 273f 493d 6c34 5c3d
00000380: 477d 92bd 1055 033b 4ff0 2dbd 275b 52bd
00000390: 9e05 0cbd 2f54 063d 30b1 0a3d f355 3fbd
000003a0: 80c7 e23c fe9f 48bd 128d 3cbc 301d 0d3a
000003b0: 5747 71bd 0858 b03a 6cc0 7fbd e074 3f3d
000003c0: fdfd 46bd 023c 063d ed2e b4bb a099 6e3b
000003d0: ec8f d5bc 4478 7dbd ad36 57bd 1905 883d
000003e0: 5cc1 553c 34ad 21bb 40aa 103d 64a3 a43d
000003f0: 1504 0a3d 27e6 acbd da79 28bd 6822 98bd

fcs.0.bias f4 [36]
0.02285566 0.01368748 0.04188331 0.101819694 -0.03187539 0.06841149 -0.06117595 -0.004961875
0.045427896 -0.023885697 0.02837601 -0.05535604 -0.062232647 0.087467045 -0.0850041 -0.06728097
-0.09527516 -0.08156418 -0.06309089 0.089252606 -0.048061214 -0.014667085 -0.048318014 -0.057371907
0.04227254 0.079171464 -0.07877008 0.04270738 -0.10818626 0.056727737 -0.038120467 0.01172718
-0.10420492 0.020629983 -0.004278824 -0.025270369
00000000: cb3b bb3c 7441 603c d58d 2b3d d886 d03d
00000010: c58f 02bd 531b 8c3d a293 7abd 3997 a2bb
00000020: 9a12 3a3d f0ab c3bc ce74 e83c 04bd 62bd
00000030: a9e7 7ebd ec21 b33d a116 aebd 9bca 89bd
00000040: a01f c3bd 1f0b a7bd cc35 81bd 12ca b63d
00000050: d6db 44bd 374e 70bc 1ce9 45bd cefe 6abd
00000060: f925 2d3d a624 a23d 3552 a1bd efed 2e3d
00000070: c290 ddbd 585b 683d 3524 1cbd 5c23 403c
00000080: 6469 d5bd 3600 a93c 6135 8cbb ce03 cfbc

fcs.1.weight f4 [36, 128]
0.03206487 0.0042373613 -0.044277396 -0.044937 0.018546212 -0.016644416 -0.037164923 -0.06958616
-0.031447943 0.09422059 -0.027277239 -0.011532925 -0.014553912 0.03579538 -0.0823364 0.040357154
0.008491261 -0.023196822 -0.059116837 0.06449417 -0.023908399 -0.035054237 -0.068688795 -0.0794245
0.010736141 -0.036721233 0.008820212 -0.034992166 -0.069376364 -0.048741665 0.08085565 -0.036854435
0.05656169 0.07783612 -0.032848522 -0.064826414 -0.0033514532 -0.053828392 -0.036007043 -0.073035695
-0.054710574 0.075122625 -0.01159004 0.07705312 -0.01129642 -0.063769735 -0.09801989 -0.01136872
0.017446892 -0.029147444 -0.11228235 0.023986189 -0.07149923 -0.030971657 -0.07423915 -0.041582484
-0.062105063 0.002908967 0.060006462 0.0380058 0.014770056 -0.02642701 -0.0694701 0.0886316
-0.08191403 -0.08057853 0.041448765 -0.035530325 0.059298646 0.025866995 0.022540553 -0.022050189
-0.016159294 0.014381565 -0.076430604 0.012082638 0.007871733 -0.061397497 -0.03162501 0.05482585
-0.03541151 -0.010807551 0.054597892 -0.047995184 -0.05131705 0.050843313 0.033609785 -0.0821543
0.016581563 0.062328063 -0.0530532 -0.057061344 0.029899685 -0.0053961636 -0.053590547 0.08818484
0.005928631 0.0029203359 -0.030627336 0.117025025 0.08693319 0.013680902 0.049627144 -0.07407248
0.006577932 -0.064428486 0.012499784 -0.004047458 0.043999314 0.022649795 0.0032025673 0.037968222
-0.05457244 0.08419138 0.050026 -0.09374952 -0.075210445 -0.033076674 0.026152777 0.050928887
0.08120745 -0.07311939 -0.044457626 0.058272187 0.03338254 0.047413107 0.05147351 -0.08865367
-0.025003487 0.08972935 -0.0448213 -0.065702796 0.011368213 -0.017107321 -0.07956753 -0.047902934
-0.00390491 0.06690946 0.09932801 -0.006461701 0.026830731 0.05361844 0.005985221 0.07284235
0.057397265 -0.043013737 -0.0057362793 -0.028590914 -0.04864822 0.055085674 -0.026875723 -0.046892125
-0.09371627 0.04366606 -0.01595514 0.081510596 -0.04694444 0.06627843 0.025269493 0.016611535
-0.04528734 0.0065846737 0.03929719 -0.042502105 -0.042592134 0.014797757 0.039161164 -0.080057725
0.05013465 -0.02100695 -0.092467524 0.06734919 -0.05194438 0.07740178 0.066152416 -0.065918416
-0.055346053 0.06275285 -0.04442501 -0.083657384 -0.0628437 0.085932784 -0.029148988 -0.07417376
0.0641735 0.022943249 0.0071924534 0.029080294 -0.08833261 0.080587745 -0.0408931 0.0649859
-0.064553656 -0.10326941 0.0886041 -0.049721465 0.070084676 -0.046967193 0.055346385 0.047894098
-0.042810548 0.049055334 -0.03332713 -0.028490957 0.0668662 -0.0476357 0.07420268 -0.061210092
0.042932525 0.0766413 -0.03496554 -0.040554807 -0.063114025 -0.057436403 -0.052024554 -0.025649711
0.03359462 0.051202398 -0.01590015 0.026655996 -0.022957198 0.022692202 -0.07821628 -0.07201508
0.065318644 -0.026487183 0.0011379573 0.050304547 0.027215471 0.06495228 0.0070733484 -0.056389395
-0.009957776 -0.05135244 -0.051781576 -0.017953409 -0.022791578 -0.08241826 0.04697313 0.055876143
-0.087049626 0.040313542 -0.029114975 -0.047351316 -0.026880166 -0.023441432 0.06591248 0.07366222
-0.043223917 -0.022891646 -0.047031198 0.06354593 -0.048176277 -0.04272985 -0.020929035 -0.02426137
00000000: 7456 033d 90d9 8a3b 375c 35bd dc0f 38bd
00000010: 3aee 973c df59 88bc 3f3a 18bd 3083 8ebd
00000020: 8fcf 00bd baf6 c03d 8474 dfbc 98f4 3cbc
00000030: 8873 6ebc 2d9e 123d fd9f a8bd 8b4d 253d
00000040: ee1e 0b3c 4307 bebc 7f24 72bd 8515 843d
00000050: 8cdb c3bc 0895 0fbd b6ac 8cbd 50a9 a2bd
00000060: a4e6 2f3c 0169 16bd a782 103c f253 0fbd
00000070: 3215 8ebd 57a5 47bd a697 a53d adf4 16bd
00000080: 3bad 673d 8b68 9f3d 2c8c 06bd b6c3 84bd
00000090: 0ea4 5bbb 297b 5cbd 1f7c 13bd bd93 95bd
000000a0: 3218 60bd e4d9 993d 27e4 3dbc 07ce 9d3d
000000b0: 9f14 39bc b599 82bd a7be c8bd de43 3abc
000000c0: c9ec 8e3c 9fc6 eebc 4af4 e5bd af7e c43c
000000d0: 306e 92bd 46b8 fdbc b20a 98bd 6552 2abd
000000e0: e161 7ebd 5ea4 3e3b 56c9 753d f8ab 1b3d
000000f0: 1bfe 713c 757d d8bc 5746 8ebd 7c84 b53d
00000100: 8bc2 a7bd 5b06 a5bd 2ec6 293d 3f88 11bd
00000110: 23e3 723d 05e7 d33c f7a6 b83c 99a2 b4bc
00000120: 7f60 84bc a8a0 6b3c a687 9cbd 42f6 453c
00000130: 71f8 003c f17b 7bbd 3a89 01bd 1291 603d
00000140: a90b 11bd 2812 31bc 0aa2 5f3d 9996 44bd
00000150: d431 52bd 1441 503d 6aaa 093d 8340 a8bd
00000160: 0fd6 873c b64b 7f3d 504e 59bd 28b9 69bd
00000170: 2ff0 f43c 4dd2 b0bb c381 5bbd 419a b43d
00000180: f644 c23b 1b63 3f3b 2ee6 fabc d1aa ef3d
00000190: 070a b23d dd25 603c d545 4b3d 50b3 97bd
000001a0: b18b d73b 15f3 83bd e5cb 4c3c 8aa0 84bb
000001b0: a038 343d 108c b93c 2ae2 513b 9184 1b3d
000001c0: 5a87 5fbd 886c ac3d 10e8 4c3d c0ff bfbd
000001d0: ef07 9abd 687b 07bd 593e d63c cf9a 503d
000001e0: 1750 a63d 9ebf 95bd 3319 36bd d1ae 6e3d
000001f0: 21bc 083d 3f34 423d e3d5 523d 0e90 b5bd
00000200: 1dd4 ccbc 05c4 b73d 8a96 37bd 308f 86bd
00000210: be41 3a3c a724 8cbc 4df4 a2bd de35 44bd
00000220: 85e9 7fbb d407 893d 7c6c cb3d adbc d3bb
00000230: 1fcc db3c 029f 5b3d ac1f c43b 5f2e 953d
00000240: 6519 6b3d 2c2f 30bd 66f7 bbbb 7e37 eabc
00000250: 5b43 47bd 84a1 613d 7a2a dcbc f511 40bd
00000260: 51ee bfbd 2fdb 323d 5bb4 82bc 07ef a63d
00000270: d048 40bd fcbc 873d f801 cf3c ea14 883c
00000280: 387f 39bd 3fc4 d73b 17f6 203d b016 2ebd
00000290: 1775 2ebd 4b72 723c 7567 203d 4ef5 a3bd
000002a0: fe59 4d3d c416 acbc 9d5f bdbd 5fee 893d
000002b0: a1c3 54bd d384 9e3d eb7a 873d 3c00 87bd
000002c0: 8bb2 62bd 9184 803d 00f7 35bd 9054 abbd
000002d0: 33b4 80bd 87fd af3d dcc9 eebc 6ae8 97bd
000002e0: 656d 833d 7bf3 bb3c acae eb3b cc39 ee3c
000002f0: bae7 b4bd 300b a53d 867f 27bd 5417 853d
00000300: b534 84bd ea7e d3bd 1176 b53d bca8 4bbd
00000310: 8e88 8f3d ac60 40bd e4b2 623d 9a2c 443d
00000320: 1d5a 2fbd 3fee 483d 0782 08bd de65 e9bc
00000330: 25f1 883d a71d 43bd 93f7 973d 6fb7 7abd
00000340: 04da 2f3d 1df6 9c3d 0738 0fbd cc1c 26bd
00000350: ed41 81bd 6f42 6bbd b317 55bd 581f d2bc
00000360: 839a 093d 9bb9 513d 0841 82bc ad5d da3c
00000370: bc10 bcbc ffe4 b93c db2f a0bd a47c 93bd
00000380: c8c5 853d a6fb d8bc 8327 953a 240c 4e3d
00000390: fbf2 de3c b305 853d 8cc7 e73b 91f8 66bd
000003a0: f125 23bc f056 52bd eb18 54bd 0713 93bc
000003b0: 67b5 babc e8ca a8bd e666 403d 62de 643d
000003c0: 1347 b2bd d01f 253d 8782 eebc 74f3 41bd
000003d0: cb33 dcbc 3f08 c0bc 1ffd 863d 38dc 963d
000003e0: 900b 31bd 4387 bbbc c9a3 40bd 5e24 823d
000003f0: 7d54 45bd 7f05 2fbd 5e73 abbc c8bf c6bc

fcs.1.bias f4 [36]
0.06478765 0.041875184 0.06421129 -0.069415845 0.018920133 0.06824964 0.03376003 -0.029067244
0.00062920694 -0.020980172 -0.04002441 -0.07371207 0.052996036 0.07061244 -0.0780551 -0.031976562
0.0027897598 0.024462346 0.07722408 -0.050342984 -0.0071277884 -0.031765025 -0.033539712 -0.019032316
-0.0705734 -0.008171331 0.06905287 0.04886863 0.036907762 -0.013394424 -0.005303819 0.023916312
0.04047278 -0.005836154 0.010694773 -0.09240033
00000000: 63af 843d 5085 2b3d 3581 833d e529 8ebd
00000010: 65fe 9a3c 78c6 8b3d f547 0a3d 6e1e eebc
00000020: 5df1 243a 9cde abbc a3f0 23bd 5bf6 96bd
00000030: 5f12 593d 419d 903d 5adb 9fbd dbf9 02bd
00000040: 67d4 363b 4265 c83c a927 9e3d 7234 4ebd
00000050: 3990 e9bb 0b1c 02bd f060 09bd a9e9 9bbc
00000060: c988 90bd 0ce1 05bc 976b 8d3d 792a 483d
00000070: 982c 173d 4974 5bbc a9cb adbb 24ec c33c
00000080: c9c6 253d 353d bfbb 2139 2f3c 623c bdbd

fcs.2.weight f4 [36, 128]
-0.073034145 0.043334402 -0.04337388 -0.043163326 0.08339539 0.03643317 0.06756653 0.03299239
-0.0834256 -0.0966939 -0.09062575 -0.057631668 -0.028416965 0.08424508 -0.0928708 0.0016811631
0.042419612 0.060090307 0.069512464 -0.04441716 -0.07346918 0.01504024 -0.030143447 0.027652973
-0.057250552 -0.09093716 -0.02744207 0.019117137 -0.032098435 -0.04787671 -0.021920485 -0.019430969
-0.08188969 0.047489338 0.033701137 -0.003683858 -0.0050000483 0.03751595 -0.041797705 0.08494435
-0.03165163 0.03365838 0.03808943 0.058855496 -0.08483889 -0.0007910622 -0.04731899 -0.009425066
0.047508202 -0.028700285 0.037395403 -0.050755292 -0.06964588 0.067475475 0.053075872 -0.055569664
0.0819926 -0.012177912 0.079353824 0.08491373 -0.089502454 -0.044634443 -0.07460776 0.06143981
-0.010778985 -0.0007487035 0.025623549 -0.049621116 -0.04607309 -0.09287647 -0.009409346 0.06310537
0.056216817 -0.05939031 0.0014189327 0.04206672 0.06622651 -0.04607951 0.04471518 0.06584295
0.023224188 -0.008924352 0.08644468 -0.014601732 -0.06454682 -0.06147881 -0.09638148 -0.07802738
0.036152404 -0.05029163 0.051002596 0.05004498 -0.038178384 -0.043789938 0.020782731 -0.05326505
-0.021010265 0.0858946 0.042238537 -0.061017673 0.051678993 -0.04431574 -0.009926649 0.06583841
-0.014176449 -0.024631152 -0.059404265 -0.02493132 -0.04328581 -0.03780861 0.060614605 0.0019966315
0.06263369 -0.026756559 0.09626262 -0.08230127 -0.0028816196 -0.014572044 -0.03940518 0.08273045
-0.08507567 -0.084553346 0.050597608 -0.037859693 0.03990049 0.05602469 0.02461973 0.022346662
-0.031642806 0.052665394 -0.06566498 0.033413462 -0.071716234 0.08320688 0.054783035 -0.03872647
0.04965752 -0.07193141 0.09043334 -0.09509183 0.0073123304 -0.014498756 -0.00012278429 -0.014609542
-0.049952347 -0.042633314 0.050854016 0.06303464 0.052564763 0.06799482 0.07558893 0.081747346
-0.03712314 -0.037290722 -8.8221495e-05 -0.09569928 -0.04644698 -0.08636004 0.05077105 -0.08378862
-0.0128096 -0.010931032 -0.052759193 -0.06331692 0.008126304 0.08644818 0.0014900208 0.07286166
0.10417648 -0.038175948 0.053894207 -0.057563033 0.055670578 -0.06712705 -0.06527507 -0.056419715
0.0034654124 -0.058875047 -0.0351815 0.056261968 -0.084187806 -0.012785608 -0.039964397 0.081469096
-0.08421928 -0.030928893 -0.041411087 0.0009527573 -0.0084546525 0.0042869193 0.017453197 0.099198654
-0.027333735 0.056293264 -0.04879778 0.049807232 -0.03870135 0.0066827484 0.06044808 0.088525765
-0.047965303 0.033182766 0.090035655 -0.054219924 0.004423083 -0.04192194 0.03644578 0.0075638066
-0.04946542 -0.05355621 0.03042423 0.0301801 -0.05027581 -0.022787817 -0.06913817 0.014155732
0.010476167 0.079802744 -0.021072092 -0.035152897 -0.088410005 0.067267835 -0.0049609966 0.023177948
-0.061960496 0.07581271 -0.0081118625 -0.06223934 0.105505764 0.026124574 -0.09070359 0.019375052
-0.062668025 -0.071393535 0.02800369 0.045324933 -0.027848758 -0.034741197 0.0044804513 0.0029350263
0.08215043 0.002816097 0.0736635 -0.065810025 -0.012345213 -0.036234826 0.08147745 -0.06405917
-0.0072208936 -0.06704727 0.055005454 -0.06658888 0.045933433 -0.05000294 -0.022384878 0.028970862
00000000: ed92 95bd 6a7f 313d cfa8 31bd 07cc 30bd
00000010: 34cb aa3d f33a 153d 5260 8a3d 0723 073d
00000020: 0adb aabd 7407 c6bd fe99 b9bd 2f0f 6cbd
00000030: b2ca e8bc af88 ac3d 0c33 bebd 795a dc3a
00000040: 30c0 2d3d 4121 763d 8d5c 8e3d c5ee 35bd
00000050: 0277 96bd 576b 763c 64ef f6bc 7d88 e23c
00000060: 8e7f 6abd 433d babd 31ce e0bc 8b9b 9c3c
00000070: a679 03bd 5e1a 44bd 9792 b3bc b22d 9fbc
00000080: c8b5 a7bd 2e84 423d 340a 0a3d e26c 71bb
00000090: 72d7 a3bb 53aa 193d 1234 2bbd 4ef7 ad3d
000000a0: 24a5 01bd 5fdd 093d aa03 1c3d 7612 713d
000000b0: 03c0 adbd 495f 4fba 8fd1 41bd 986b 1abc
000000c0: f697 423d dc1c ebbc ec2b 193d c8e4 4fbd
000000d0: 80a2 8ebd 9530 8a3d 1666 593d 049d 63bd
000000e0: bceb a73d dd85 47bc 4284 a23d 40e7 ad3d
000000f0: 104d b7bd 9bd2 36bd f4cb 98bd 4fa8 7b3d
00000100: 579a 30bc a444 44ba 7ae8 d13c 833f 4bbd
00000110: 23b7 3cbd 0536 bebd a829 1abc 633d 813d
00000120: 9b43 663d 4143 73bd 7bfb b93a 274e 2c3d
00000130: c4a1 873d debd 3cbd 4427 373d abd8 863d
00000140: a740 be3c 7237 12bc e909 b13d 1a3c 6fbc
00000150: 2031 84bd 34d1 7bbd a763 c5bd d2cc 9fbd
00000160: 8b14 143d 99fe 4dbd 19e8 503d f7fb 4c3d
00000170: f060 1cbd 145d 33bd 8c40 aa3c 742c 5abd
00000180: b81d acbc 82e9 af3d 5102 2d3d abed 79bd
00000190: 5aad 533d 6c84 35bd 62a3 22bc 4ad6 863d
000001a0: 5644 68bc 45c7 c9bc e351 73bd c53c ccbc
000001b0: 764c 31bd 33dd 1abd 0547 783d ebd9 023b
000001c0: 1846 803d 9230 dbbc 5625 c53d 918d a8bd
000001d0: 8ed9 3cbb 95bf 6ebc 5367 21bd 956e a93d
000001e0: 273c aebd 4e2a adbd 703f 4f3d c412 1bbd
000001f0: b26e 233d 257a 653d 51af c93c 5910 b73c
00000200: e39b 01bd abb7 573d 5c7b 86bd 8edc 083d
00000210: f6df 92bd 5e68 aa3d 2d64 603d a69f 1ebd
00000220: af65 4b3d c650 93bd 1d35 b93d 81bf c2bd
00000230: 469c ef3b 318c 6dbc a8bf 00b9 dc5c 6fbc
00000240: d59a 4cbd 45a0 2ebd 4d4c 503d 4e18 813d
00000250: 264e 573d de40 8b3d 5ece 9a3d 276b a73d
00000260: 6f0e 18bd 28be 18bd 8e03 b9b8 fcfd c3bd
00000270: 303f 3ebd 88dd b0bd 4ef5 4f3d 5e99 abbd
00000280: 5bdf 51bc 1218 33bc 061a 58bd 4dac 81bd
00000290: 3024 053c be0b b13d cd4c c33a 7e38 953d
000002a0: 7a5a d53d 625e 1cbd 2cc0 5c3d 37c7 6bbd
000002b0: d506 643d e879 89bd f0ae 85bd 5c18 67bd
000002c0: f91b 633b f626 71bd 7a1a 10bd f372 663d
000002d0: a86a acbd ba7a 51bc b5b1 23bd 45d9 a63d
000002e0: 287b acbd 975e fdbc ac9e 29bd 76c2 793a
000002f0: 6285 0abc 4979 8c3b 02fa 8e3c aa28 cb3d
00000300: ffea dfbc c493 663d 2ee0 47bd ab02 4c3d
00000310: 4f85 1ebd f5fa da3b 6898 773d ff4c b53d
00000320: 4477 44bd a7ea 073d 9d64 b83d b615 5ebd
00000330: 82ef 903b 57b6 2bbd 2c48 153d cfd9 f73b
00000340: 419c 4abd c25d 5bbd 3c3c f93c 423c f73c
00000350: 02ee 4dbd 84ad babc 5098 8dbd 71ed 673c
00000360: 3ba4 2b3c 9f6f a33d 619f acbc 7cfc 0fbd
00000370: 4e10 b5bd b8c3 893d db8f a2bb aedf bd3c
00000380: 4aca 7dbd b243 9b3d 9ee7 04bc aeee 7ebd
00000390: 6813 d83d 3403 d63c cec2 b9bd 6eb8 9e3c
000003a0: 1858 80bd c636 92bd ff67 e53c a3a6 393d
000003b0: 1423 e4bc c94c 0ebd c0d0 923b 9259 403b
000003c0: 7c3e a83d 458e 383b e4dc 963d 68c7 86bd
000003d0: 9443 4abc f86a 14bd a6dd a63d 7431 83bd
000003e0: 3f9d ecbb 1450 89bd 664d 613d c05f 88bd
000003f0: b224 3c3d e2cf 4cbd 7e60 b7bc 4d54 ed3c
